batch_size= 10 
epochs= 100 
hidden_dims= [16, 16]
_________________________________________________________________
Layer (type)                 Output Shape              Param #   
=================================================================
dense_1 (Dense)              (None, 16)                2208      
_________________________________________________________________
activation_1 (Activation)    (None, 16)                0         
_________________________________________________________________
dense_2 (Dense)              (None, 16)                272       
_________________________________________________________________
activation_2 (Activation)    (None, 16)                0         
_________________________________________________________________
dense_3 (Dense)              (None, 1)                 17        
_________________________________________________________________
activation_3 (Activation)    (None, 1)                 0         
=================================================================
Total params: 2,497
Trainable params: 2,497
Non-trainable params: 0
_________________________________________________________________

   10/74397 [..............................] - ETA: 7:54
 1150/74397 [..............................] - ETA: 7s  
 2340/74397 [..............................] - ETA: 5s
 3540/74397 [>.............................] - ETA: 4s
…
