batch_size= 10 
epochs= 100 
hidden_dims= [100, 100]
_________________________________________________________________
Layer (type)                 Output Shape              Param #   
=================================================================
dense_1 (Dense)              (None, 100)               13800     
_________________________________________________________________
activation_1 (Activation)    (None, 100)               0         
_________________________________________________________________
dense_2 (Dense)              (None, 100)               10100     
_________________________________________________________________
activation_2 (Activation)    (None, 100)               0         
_________________________________________________________________
dense_3 (Dense)              (None, 1)                 101       
_________________________________________________________________
activation_3 (Activation)    (None, 1)                 0         
=================================================================
Total params: 24,001
Trainable params: 24,001
Non-trainable params: 0
_________________________________________________________________

   10/74397 [..............................] - ETA: 6:33
  890/74397 [..............................] - ETA: 8s  
 1980/74397 [..............................] - ETA: 5s
 3000/74397 [>.............................] - ETA: 4s
…
