batch_size= 10 
epochs= 100 
hidden_dims= [100, 50]
_________________________________________________________________
Layer (type)                 Output Shape              Param #   
=================================================================
dense_1 (Dense)              (None, 100)               13800     
_________________________________________________________________
activation_1 (Activation)    (None, 100)               0         
_________________________________________________________________
dense_2 (Dense)              (None, 50)                5050      
_________________________________________________________________
activation_2 (Activation)    (None, 50)                0         
_________________________________________________________________
dense_3 (Dense)              (None, 1)                 51        
_________________________________________________________________
activation_3 (Activation)    (None, 1)                 0         
=================================================================
Total params: 18,901
Trainable params: 18,901
Non-trainable params: 0
_________________________________________________________________

   10/74397 [..............................] - ETA: 5:37
 1240/74397 [..............................] - ETA: 6s  
 2770/74397 [>.............................] - ETA: 4s
 4320/74397 [>.............................] - ETA: 3s
…
