batch_size= 10 
epochs= 200 
hidden_dims= [50, 50]
_________________________________________________________________
Layer (type)                 Output Shape              Param #   
=================================================================
dense_1 (Dense)              (None, 50)                6900      
_________________________________________________________________
activation_1 (Activation)    (None, 50)                0         
_________________________________________________________________
dense_2 (Dense)              (None, 50)                2550      
_________________________________________________________________
activation_2 (Activation)    (None, 50)                0         
_________________________________________________________________
dense_3 (Dense)              (None, 1)                 51        
_________________________________________________________________
activation_3 (Activation)    (None, 1)                 0         
=================================================================
Total params: 9,501
Trainable params: 9,501
Non-trainable params: 0
_________________________________________________________________

   10/74397 [..............................] - ETA: 5:48
 1400/74397 [..............................] - ETA: 5s  
 2930/74397 [>.............................] - ETA: 4s
 4540/74397 [>.............................] - ETA: 3s
…
