batch_size= 10 
epochs= 100 
hidden_dims= [50, 50]
_________________________________________________________________
Layer (type)                 Output Shape              Param #   
=================================================================
dense_1 (Dense)              (None, 50)                1750      
_________________________________________________________________
activation_1 (Activation)    (None, 50)                0         
_________________________________________________________________
dense_2 (Dense)              (None, 50)                2550      
_________________________________________________________________
activation_2 (Activation)    (None, 50)                0         
_________________________________________________________________
dense_3 (Dense)              (None, 1)                 51        
_________________________________________________________________
activation_3 (Activation)    (None, 1)                 0         
=================================================================
Total params: 4,351
Trainable params: 4,351
Non-trainable params: 0
_________________________________________________________________

   10/74397 [..............................] - ETA: 6:56
  820/74397 [..............................] - ETA: 9s  
 1660/74397 [..............................] - ETA: 6s
 2480/74397 [>.............................] - ETA: 6s
…
